test_out.pt (torch, 118338 bytes, 11 tensors)

weight f4 [10, 1, 5, 5]
000000 cc 0b ca bd 4a 1f a4 be 26 bc 3d be 5f c5 29 3e
       -0.09865531 -0.32055122 -0.18528804 0.16579197
000010 38 36 90 3c 88 0f 16 bf 27 e3 25 be 26 7e 41 3e
       0.017603979 -0.5861745 -0.16199933 0.18895778
000020 be cc 8a 3e 3c 0b 91 be 46 36 77 be 6f 7e f6 3e
       0.2710933 -0.28328884 -0.24141797 0.48143336
000030 7f c4 96 3e 9d 58 c9 3e 2b 61 82 be a1 ff db 3e
       0.2944679 0.3932542 -0.25464758 0.42968467
000040 4e 8e b1 3e a8 72 c0 be 0c 37 96 3e 18 4c b5 3d
       0.34678882 -0.37587476 0.29338872 0.08852404
000050 b4 c2 92 3c bd de 9d 3d 5d 11 92 be 39 83 12 be
       0.017915107 0.077084996 -0.28528872 -0.1430787
000060 e5 17 7d bc 6d 5a 46 3d 6e 1a 01 3e 43 8c 9f bd
       -0.015447591 0.04842608 0.12607738 -0.07790425
000070 63 90 26 be 4a 49 6e 3e 7b ef fb bd 0f 08 76 3d
       -0.16266017 0.23270145 -0.12301537 0.06006628
000080 af 7e c9 be 2b ec 4c be 4c dc fd 3d 40 8f 0b 3e
       -0.39354464 -0.20011966 0.12395534 0.13628864
000090 d9 69 10 3f 02 c8 90 be 7e e3 fe be 9c ee 7b be
       0.5641151 -0.28277594 -0.49782938 -0.24602741
0000a0 57 4a 39 bd ba ac 15 3f 4b 28 ea bd dc 8c 2a be
       -0.04523691 0.58466685 -0.114334665 -0.16655296
0000b0 d1 0d 84 be 8b d3 bd 3d 93 6b 19 3f e6 c8 57 3e
       -0.2579179 0.09268864 0.5992977 0.2107273
0000c0 85 58 7b 3e 98 f9 27 3d cb 66 0b bd 9a ae a1 3a
       0.24545486 0.041009516 -0.034033578 0.001233536
0000d0 cd 5d c6 3e af 17 af be 43 db 59 be b3 7f e9 be
       0.3874344 -0.34197757 -0.21275048 -0.4560524
0000e0 f8 26 5f 3d 2c bf 25 3f 67 6a 84 3e 00 1a c6 bd
       0.054480523 0.6474483 0.2586243 -0.09672928
0000f0 35 57 a0 be 43 f8 74 be 5e bc 53 bb e3 31 50 3e
       -0.31316534 -0.2392283 -0.003230832 0.2033153
000100 02 76 84 3e d1 80 e9 be 73 84 a6 be ba 6c 3d be
       0.25871283 -0.45606092 -0.32522926 -0.18498507
000110 f7 1f 6c bc d5 ee 5b 3e d8 fd 04 bc 86 b0 5d be
       -0.014411918 0.21477826 -0.008117162 -0.2164937
000120 ac 1c 90 bc cb 5c e2 bd bc ff 85 bd 8d 9c 8c 3d
       -0.017591797 -0.11052855 -0.06542918 0.06865797
000130 45 4e 77 3e 52 ed cc be 5f 04 4f 3e 46 d3 25 be
       0.24150951 -0.4002481 0.20216511 -0.16193876
000140 19 5e e0 3e 46 1e d4 3e 6b bc f3 3e 47 8f f6 3e
       0.4382179 0.41429347 0.4760469 0.48156187
000150 d6 ab e6 3d 85 81 d8 bc ba c2 a9 bc d1 8f 65 be
       0.11263244 -0.026428947 -0.020722736 -0.22418143
000160 80 ea 59 be e7 c0 09 be f9 3f ee 3d 14 49 8e be
       -0.21280861 -0.13452493 0.116332956 -0.2779013
000170 d4 6a 7e be 2d 56 e9 bd d2 3d 06 3c 6e e9 cc bd
       -0.24845439 -0.1139339 0.00819345 -0.10005461
000180 7f d5 bc bc 54 7c 17 3a 34 74 a5 3d c5 05 23 3c
       -0.023051022 0.0005778719 0.080788046 0.009950106
000190 ef f1 ab be e8 ea 93 be 3b e3 2d bf 34 37 8c be
       -0.33583018 -0.28890157 -0.6792485 -0.27385867
0001a0 16 76 2c 3e 5c 08 7b 3d 00 c8 6d be 81 d4 ba 3e
       0.16841921 0.06128727 -0.23220825 0.36490253
0001b0 5c e9 38 3f 5f ed d0 bb 12 49 a5 3e 2a 87 61 be
       0.7223108 -0.006375953 0.3228231 -0.22024217
0001c0 54 2c 5b 3e ee 1b a0 be 86 f8 9e be 85 cb 84 3c
       0.21403629 -0.3127131 -0.31048983 0.016210327
0001d0 3c a7 e8 3e f8 17 64 3e 25 4c 0c bd 85 55 a5 3e
       0.4544009 0.22274768 -0.034252305 0.3229181
0001e0 3e 80 02 3d c4 e2 f3 bd a2 b2 0c be 33 1b 2c be
       0.031860583 -0.119084865 -0.13740018 -0.1680725
0001f0 be 25 0e be 65 3b 58 3e 58 89 97 be b1 9a ea bd
       -0.13881585 0.21116407 -0.29596972 -0.11455286
000200 8d b0 ec 3e e3 cf ca be 55 c6 e9 be 8e 48 b4 be
       0.46228448 -0.3961173 -0.45659128 -0.35211605
000210 66 9f c2 3d 79 81 54 3d 14 32 9a be 15 c7 df 3e
       0.09503059 0.051881287 -0.30116332 0.43706575
000220 b5 c6 00 3f 51 75 06 3e 4d 38 27 3f a0 0d 7f 3e
       0.503032 0.1313069 0.65320283 0.24907541
000230 c6 7b be bd 86 6a 0e bf ec 4f c2 be c9 1d ec 3c
       -0.09300952 -0.5563129 -0.379516 0.028822796
000240 6f 31 6c be c2 6c f2 bc 16 24 8e be ac 8e ff bd
       -0.23065732 -0.029592875 -0.27761906 -0.124783844
000250 13 fb 7e be 24 ad d7 3c a1 14 45 bd 49 7f 06 3d
       -0.24900465 0.026327677 -0.048115376 0.032836232
000260 7c 11 af 3d ea 7c 86 3c 1a 89 85 bd 8e cd a7 3e
       0.08548257 0.016416986 -0.06520291 0.32774013
000270 71 9d 2c bd d8 18 aa 3e 78 33 bf be 23 b6 09 be
       -0.042142335 0.3322208 -0.37343955 -0.13448386
000280 e8 74 84 3e 12 aa de 3c 64 27 bf 3e 6f 05 d0 be
       0.25870442 0.027180705 0.3733474 -0.40629146
000290 15 b6 50 be 56 be b0 3e 87 fb 3b be 7f 90 9f bd
       -0.20381959 0.34520215 -0.18357669 -0.07791232
0002a0 0a 36 dc bd d0 ac 0f 3d 7c 2b a2 3d 46 8d b3 be
       -0.10752495 0.035076916 0.0791845 -0.3506872
0002b0 1d 32 ca 3e 86 02 30 3e 1d bb 48 3d 31 ff b9 3e
       0.39491358 0.17188463 0.04900657 0.36327508
0002c0 fe c8 5f be f4 7c 75 bc 88 1b 5a be 3e 25 77 3e
       -0.21854016 -0.014983404 -0.21299565 0.241353
0002d0 5e c5 6c 3e 61 7a 47 be b6 2b bb 3d c0 cc b6 3d
       0.23122165 -0.19480278 0.091391966 0.08925772
0002e0 01 3d 32 be 92 c2 cd 3e c4 33 6b be 08 2d 29 be
       -0.17406084 0.40187508 -0.22968966 -0.16521084
0002f0 5c 54 27 3d eb b1 0e be b7 57 bb 3e 12 50 8b be
       0.040851936 -0.13935058 0.3659036 -0.27209526
000300 9f c4 0f be 26 fb 8a be 76 71 2f bd ca 57 84 3e
       -0.14039849 -0.27144736 -0.042832814 0.25848228
000310 84 37 35 be 3b 56 2a 3c b6 59 15 be 0c 8b cb 3d
       -0.17696959 0.0103965355 -0.14585003 0.099386305
000320 5b f7 c0 3e 2d dd 3f bf c0 f9 59 be 66 e8 91 3d
       0.37688717 -0.7494686 -0.21286678 0.071244046
000330 64 2a 61 be 2d 1b 97 3d af 02 42 bf f6 b0 2e be
       -0.21988827 0.0737823 -0.75785345 -0.17059693
000340 fc ba ba 3e 64 07 70 be 85 a7 90 be 0e d1 4d bf
       0.36470783 -0.2344032 -0.28252807 -0.8039712
000350 55 32 4a be 2d 43 00 3f ed d7 a4 3e 86 84 07 bd
       -0.19745763 0.501025 0.32195988 -0.03308537
000360 2b 14 aa bf cf 58 38 bf 26 23 21 3e 6f 8a 96 3d
       -1.3287405 -0.7201051 0.15736064 0.07350623
000370 58 27 4b be 64 0a 51 bf 41 6c 0a bf d6 e0 01 bd
       -0.19839227 -0.8165648 -0.5407143 -0.03170856
000380 dd 32 3b 3e bf 02 15 be 1b fd 19 bf d0 07 9e be
       0.18281122 -0.14551829 -0.60151833 -0.30865335
000390 47 0c 1b be 31 2b 86 be 99 a1 a8 3c c1 59 87 3e
       -0.15141402 -0.26204827 0.020584868 0.26435664
0003a0 6c 54 21 bd 08 5d 04 3f 1b 3a 1d 3e 34 51 10 3f
       -0.03938715 0.51704454 0.15354197 0.56373906
0003b0 0a 2c 04 3f 5c dd 9a 3d 78 44 42 bd 34 0c 67 bd
       0.516297 0.07561752 -0.04742858 -0.056408122
0003c0 09 b0 34 be 35 e7 79 bc c7 2e 92 be 7b a8 11 be
       -0.17645277 -0.015252878 -0.28551313 -0.14224426
0003d0 7d 61 6f bd de 7e 6f be 2e 55 29 bd 71 cc 06 3e
       -0.05844258 -0.2338824 -0.041341 0.13163926
0003e0 f9 50 71 bd 7f 59 18 3e
       -0.058915112 0.1487789

bias f4 [10]
000000 9c d9 f1 3c e6 1f 3d bb f1 3d 7d bb fb ba d4 ba
       0.02952271 -0.0028858124 -0.0038641656 -0.0016230041
000010 bf 07 f0 3c 07 d6 04 3d 48 45 59 bd dc fd a1 3b
       0.029300569 0.032430675 -0.053044587 0.0049435925
000020 bc eb ef 3d cf 93 79 3b
       0.11714885 0.0038082486

weight f4 [10, 10, 5, 5]
000000 d3 24 0c be de bc 87 be 90 23 90 bd 97 c3 90 3e
       -0.13685922 -0.26511282 -0.07038033 0.28274223
000010 0c 27 4c 3d ae ac 1a 3e ec 32 dd 3c 20 c1 10 3e
       0.049841926 0.15104935 0.02700182 0.14136171
000020 a7 62 6b 3e 38 7d f4 bd dc d3 e8 bd 27 98 8c 3d
       0.22986852 -0.11937946 -0.11368534 0.06864958
000030 af de b0 bd 94 3e be be 89 d9 12 3c 0f d4 ad bc
       -0.086362235 -0.37157118 0.008962997 -0.021219281
000040 8d 25 13 3e a8 0a 96 3d 9c 3e 33 be b7 32 1e be
       0.14369793 0.07326251 -0.17504352 -0.15449034
000050 ff 18 87 bd ee 66 bb 3d ad b0 26 bc c3 2d 85 bd
       -0.065965645 0.09150492 -0.010173959 -0.06502869
000060 72 76 b6 bb b9 db a0 bd a5 ee 23 bd 2b 07 89 bd
       -0.005568319 -0.07854409 -0.04002251 -0.0669082
000070 4b 8b ce 3d 3c 3d a5 3d d7 6f 42 3d a6 95 b9 bc
       0.10085162 0.0806832 0.04746994 -0.022654366
000080 44 65 9b 3d 91 ba cb bc 8b a9 90 be ad 78 aa be
       0.07587674 -0.024869235 -0.2825435 -0.33295193
000090 ff 9a 2b be 37 ca f1 3d ff 3c 13 3e b5 2d 20 be
       -0.16758345 0.118061475 0.14378737 -0.15642436
0000a0 96 e7 4f 3e 39 56 89 3c 34 54 df 3c 59 32 02 3d
       0.20303187 0.016764747 0.02726183 0.031786297
0000b0 2e ac c3 3c 13 9a 5a 3e 71 c3 29 bd 01 fb c8 bd
       0.023885813 0.21347837 -0.041446153 -0.098135
0000c0 cc a4 1c be bf 2f a1 bc 98 0e 8c be 53 81 65 be
       -0.1529724 -0.019676087 -0.27354884 -0.22412615
0000d0 cc 67 4f be 76 12 53 bd 7e bc 74 3e 42 a6 16 3d
       -0.20254439 -0.051531278 0.23900029 0.03677965
0000e0 df c1 27 bd 96 7c eb be ac 0a d6 b8 34 fc 70 3e
       -0.040956374 -0.4599349 -0.00010206303 0.23533708
0000f0 cf 6c a8 bd da 2e d1 3d 40 fc 9b bd ca 52 fc bd
       -0.082238786 0.10214014 -0.07616472 -0.12320478
000100 62 7f a1 bd df 9a c6 3d e4 a7 21 be ca cb 6f 3e
       -0.078856245 0.09697508 -0.15786701 0.23417583
000110 19 fc 37 3f 1f 96 4b 3e 9c 0e 87 3e b5 8a 58 bd
       0.71869045 0.19881485 0.26378334 -0.052866656
000120 3b 8d a1 be e5 25 e2 3d cf 5c a3 3d e7 e1 e2 bc
       -0.31553063 0.11042384 0.07976686 -0.02769561
000130 a7 12 f5 be 45 02 06 bf 89 d4 8e be 58 93 20 bd
       -0.47865793 -0.52347213 -0.27896526 -0.039203018
000140 16 eb 41 be a1 aa b7 be c3 10 3a be 53 ee c1 3d
       -0.18937334 -0.35872367 -0.18170457 0.09469285
000150 5c 16 1c 3e 6f fb b8 3e 1c b4 e0 3d 18 8b 33 bd
       0.15242904 0.3612933 0.10971853 -0.043833822
000160 1e 06 60 be 06 d3 18 be 91 c3 67 bd ad 58 a8 bd
       -0.21877334 -0.14924249 -0.05658299 -0.082200386
000170 55 70 9f bc 2e 8c 5d 3c 14 8a 92 bd 42 09 7d be
       -0.019462744 0.013522191 -0.071552426 -0.24710563
000180 0c ab 71 be 4f 73 42 bd 98 ce 7e bd 51 72 b4 3d
       -0.23600405 -0.047473248 -0.062208742 0.088108666
000190 45 61 05 bf a3 de 92 be f3 6b 61 be fa 12 0d 3e
       -0.52101547 -0.28685483 -0.22013836 0.1377677
0001a0 f5 bb b7 3d 2d 37 a1 3e dc 24 4b 3e 95 12 17 3e
       0.08971397 0.31487408 0.1983828 0.14753182
0001b0 f6 f3 48 3e 3f f9 4c bd 50 6b 86 3d c9 8a da 3c
       0.19624314 -0.050042387 0.06563437 0.026677506
0001c0 4d 1b 19 be d4 4d 2c bd e4 ac 3a be ee 67 e0 bd
       -0.1495182 -0.04206641 -0.18230015 -0.10957323
0001d0 59 94 03 be d1 20 68 be fb 34 61 be 75 0f 62 bd
       -0.12849559 -0.22668768 -0.21992867 -0.055190522
0001e0 83 e5 23 be 81 92 5e 3e f9 e9 2c be ce 8c 5f bd
       -0.1600552 0.21735574 -0.16886128 -0.05457764
0001f0 e8 5c 04 3d ba 03 68 bd 2f ad b8 be b6 39 80 be
       0.032315165 -0.05664418 -0.3606963 -0.2504403
000200 22 69 24 3e 6c 83 86 be be 53 a7 bd ea be 35 be
       0.1605573 -0.26272142 -0.081702694 -0.17748609
000210 a4 d6 33 bd a1 02 ac 3d 56 2b bf 3d 2c f3 f2 3d
       -0.04390587 0.08398939 0.093344375 0.118627876
000220 dc c8 1a 3e ec 79 63 bc eb aa d0 be e2 07 13 3c
       0.15115684 -0.013884049 -0.407554 0.008974047
000230 d2 20 b5 bd 98 d7 4e 3e 74 2e 98 3e b0 e1 d7 3d
       -0.088441506 0.2019943 0.2972294 0.10541093
000240 d5 0d 98 bd f4 d1 04 bd 12 7e a7 bd 35 a4 5a be
       -0.07424513 -0.03242679 -0.08178343 -0.21351703
000250 5b f2 2b be a5 4b 53 bd 1a b4 90 3d 6b f3 4a be
       -0.1679167 -0.051585812 0.07065602 -0.19819419
000260 a2 85 ab be 8e b7 2c be 1c bd 28 bd c9 87 0a 3e
       -0.3350039 -0.16866896 -0.041195974 0.1352836
000270 54 8f 64 3d aa 13 d0 bd 4c 50 95 3d e5 f4 22 3d
       0.05580075 -0.101600006 0.07290706 0.03978433
000280 4e 7f c6 3d 82 da 09 be 64 b7 da 3c 89 0c 30 bc
       0.0969225 -0.1346226 0.026698776 -0.010745176
000290 73 14 54 be 37 20 90 bb eb 4b 92 be cb ff 2f be
       -0.20710926 -0.0043983716 -0.28573546 -0.17187421
0002a0 04 14 d7 3d 6f bd 83 bb a2 3b b5 3d b5 7d 6c 3d
       0.105018646 -0.004020385 0.08849265 0.05773707
0002b0 b2 8d c0 3c d4 cd 2f be 64 c0 01 bd b6 e2 a9 3d
       0.023505066 -0.17168361 -0.03167762 0.08295195
0002c0 bd 0d e0 bd 0a 44 54 be 01 4f 58 be d0 a0 f7 3d
       -0.1094012 -0.2072908 -0.21123888 0.120912194
0002d0 86 5f 62 3d 50 03 f3 bd 45 c5 16 3d a8 ad a5 3d
       0.05526688 -0.11865866 0.036809225 0.08089763
0002e0 d0 e7 40 3d 54 e2 8c bc ed b1 33 be 1d a1 98 bc
       0.047096074 -0.017197765 -0.17548342 -0.018631512
0002f0 62 73 64 3e 8f f8 3c 3e 8f 92 99 3c 12 33 37 bd
       0.2230964 0.18454193 0.018746642 -0.04472644
000300 b6 e5 d3 3d cd 88 2b 3e 81 cd fa 3b 87 0f a2 bd
       0.10346548 0.16751404 0.0076538925 -0.07913118
000310 fd a8 bb 3d 3c 5b 94 bc a1 4f 37 be 24 4e bf bc
       0.09163091 -0.01810991 -0.1790147 -0.02335269
000320 0a 97 3f 3e 28 5b 98 bc a8 60 40 bd b1 86 8e 3e
       0.1870996 -0.018598154 -0.04696718 0.27837136
000330 f6 d8 50 be cc 83 c7 3d a8 ec b7 bd d8 3f 88 bd
       -0.20395264 0.09741935 -0.089806855 -0.06652802
000340 b6 30 94 3c 59 35 a5 3d 6c 60 17 3e ad c3 aa 3d
       0.018089633 0.08066816 0.14782876 0.083381034
000350 64 61 47 3e 7a 77 09 be 14 c4 c9 bd 3f a8 9a 3d
       0.19470745 -0.13424483 -0.09851852 0.07551622
000360 07 f1 4b bd a7 1d a8 3e 60 dd 8a 3e f8 d0 5e 3d
       -0.04979041 0.32835123 0.2712202 0.054398507
000370 de 79 dc bd 84 c3 b8 be 44 82 a0 3b 8d 71 21 3c
       -0.10765432 -0.36086667 0.0048983414 0.009853733
000380 d8 f5 2a be da ac d7 be bb 8d f0 be 42 75 ac be
       -0.16695344 -0.42124063 -0.46983132 -0.3368321
000390 3e 7a 98 3c 01 fd 55 3d 0a 3b 0f 3d 87 3f 0f bd
       0.018612977 0.052243236 0.034968413 -0.034972694
0003a0 97 8c cb bb f8 2a 7d 3e 1a 8d 0d bc cd 27 af 3e
       -0.006211828 0.24723423 -0.008639598 0.34210053
0003b0 86 93 c4 3d 6d c0 ca 3c 03 e9 77 be 35 25 9a be
       0.0959845 0.024749959 -0.2420998 -0.30106512
0003c0 49 c4 11 be e1 e7 14 bd 6d 72 e3 3d 3c ab 57 3d
       -0.14235033 -0.03635395 0.11105809 0.052653536
0003d0 0e 38 ab 3c 6e ed 87 3e 03 6e 6a 3e bb 75 65 3d
       0.020900752 0.26548332 0.22893529 0.05602048
0003e0 bb 7f 72 be 6b 80 9d 3d 46 b8 1c be f4 40 be bd
       -0.23681538 0.076905094 -0.1530467 -0.092897326
0003f0 01 bf 98 bd 33 72 28 bd 17 31 c8 bc 60 da e5 bd
       -0.07458306 -0.041124534 -0.02443747 -0.11223292

bias f4 [10]
000000 65 a2 54 3b b5 22 82 bc a8 73 18 3d 24 60 26 bd
       0.0032445427 -0.01588569 0.037219673 -0.04061903
000010 7f b9 69 bd c5 20 a7 bc 2e 1e e7 bc 30 7a 24 bc
       -0.05706167 -0.020401368 -0.028212633 -0.010038897
000020 d2 6a 73 bc e3 68 87 bc
       -0.014857011 -0.016529506

weight f4 [50, 490]
000000 78 11 99 bd 5e c0 20 be e9 fe ad bb 9d 6e 72 be
       -0.07474035 -0.15698382 -0.0053099287 -0.23675008
000010 92 23 3b 3d 4c 26 5b 3d 40 80 a8 3d 8d af d2 bd
       0.04568822 0.05350332 0.08227587 -0.1028739
000020 52 a9 b0 bd 1b 69 74 3d 67 f3 1d 3e 9b e3 44 3e
       -0.08626045 0.05967055 0.15424882 0.1922745
000030 a2 8e 82 3b 3d 2a 00 3d 28 67 38 be b8 dd 83 bd
       0.0039842883 0.03129028 -0.18008101 -0.06438774
000040 68 54 ab 3d 0c 70 0d be be fb b8 bc d1 9f 9a bd
       0.083657086 -0.13812274 -0.022580978 -0.07550014
000050 d4 27 c6 bd 7b 5d 1a be 91 a8 a3 bd 26 8e 9f 3c
       -0.09675565 -0.15074722 -0.07991136 0.019476961
000060 52 de 79 3e 7d 42 c9 3e a0 13 a0 3d f8 f7 83 3d
       0.24401215 0.3930854 0.07816243 0.06443781
000070 32 9e e1 bd d6 9c 9b 3d 52 f0 73 3e 18 c6 07 3e
       -0.110165015 0.075982735 0.23822144 0.1325916
000080 7c 17 04 3d 5e 28 3c be 52 3b 48 be 4c f0 00 3d
       0.03224896 -0.18374774 -0.19553879 0.031479165
000090 4b 9e c0 3d 63 ff a4 3d 3d ab 05 be ee 43 a6 bd
       0.09405192 0.08056524 -0.13053603 -0.08118425
0000a0 b0 fa 46 3e d1 ee 98 3e a8 a0 9b 3d 55 d8 95 3d
       0.19431567 0.29869702 0.07599002 0.07316653
0000b0 04 8c 3e 3c 7b 46 81 be 9d d7 da bd 56 16 8d be
       0.011630062 -0.25249085 -0.10685656 -0.27556103
0000c0 2b 1c 06 be 89 a1 95 ba 64 79 4e 3c 6e d6 6d bd
       -0.13096683 -0.0011415939 0.012602184 -0.058065824
0000d0 24 13 81 bd 24 a5 d8 bb c6 f8 8a 3c d7 9e 26 3d
       -0.06302479 -0.006611483 0.016964328 0.040678825
0000e0 3c 93 6c bc 17 df e5 3c 81 63 a8 bd 05 49 95 bd
       -0.0144394 0.02806048 -0.08222104 -0.07289318
0000f0 62 ee 12 bd c4 d5 c1 3c 57 a8 c7 bc 9c c1 71 bc
       -0.03587187 0.023661502 -0.024372263 -0.014755633
000100 ec 8c 25 3c 0b e2 4b bd 65 11 a1 bc d0 af 83 bc
       0.010104399 -0.04977612 -0.019661615 -0.016075045
000110 7b e3 3f bd 17 3e 0d 3d f2 e2 fb bc 25 e1 7f 3c
       -0.0468478 0.03448304 -0.030747864 0.0156176435
000120 f0 23 81 3c 1a fc 86 bd b9 35 33 3d 42 64 8c 3b
       0.015764207 -0.06591053 0.043752406 0.0042844126
000130 55 ea 41 b9 bc 13 0e bd e5 14 67 3d 90 be 48 3c
       -0.0001849321 -0.03468679 0.05641641 0.012252465
000140 8c 82 66 3d c0 28 23 bd f6 11 7c bd 5d 57 82 bd
       0.056276843 -0.039833784 -0.061540566 -0.063643195
000150 7d 9e a7 bc 7d 1d 9a bc 10 99 33 3d 54 17 86 bc
       -0.020461315 -0.01881289 0.043847144 -0.016368546
000160 f1 3e 09 3b 70 cc b1 3c e5 6f 6f bc 6a 38 28 3c
       0.0020942057 0.021703929 -0.01461408 0.010267356
000170 72 51 33 bc 2e 30 3d bd 7d 71 7f 3c 59 90 e1 bc
       -0.010944711 -0.046188526 0.015591023 -0.02753465
000180 a3 85 d4 bc 87 8b b1 3c ce d7 0a bd e6 1a a4 3d
       -0.02594263 0.021672977 -0.033897214 0.08012943
000190 f8 a9 55 3d 95 c5 dc 3c 41 74 99 be 1d 39 8d bd
       0.052164048 0.026949683 -0.29971507 -0.06895659
0001a0 bd 66 b7 bd 46 9a d2 bd 9f b3 8b 3c f0 4d 69 3d
       -0.08955143 -0.102833316 0.017053423 0.056959093
0001b0 cd 93 51 3d 55 a8 4d 3d eb bd 88 3d 0b 3c c0 ba
       0.051166344 0.050209362 0.06676849 -0.0014666332
0001c0 91 17 11 be a5 aa b4 bd a2 e2 a5 bc ad 6b 9c bc
       -0.14169146 -0.0882161 -0.020249669 -0.019094313
0001d0 c4 e4 d3 bd 5a f4 47 be dc c2 1b 3d a3 91 99 3e
       -0.10346368 -0.19526806 0.03802763 0.29993924
0001e0 51 20 04 be 65 0b 38 be 82 39 c3 3e 28 d4 b9 3d
       -0.12902953 -0.17973097 0.38129812 0.09073669
0001f0 0e 2f e5 bc bf 14 ff 3c 28 0b 39 3e 6f 1f c9 bd
       -0.027976539 0.031137822 0.18070662 -0.098204486
000200 5f 99 eb 3d ba a6 dd 3d e2 8e 31 3e 61 3b fa bd
       0.115038626 0.10822816 0.17339662 -0.12218357
000210 a9 22 b1 bc d9 0a 6e bc 6a 7a 42 3e c8 82 26 3e
       -0.021622973 -0.0145289535 0.1899201 0.16260827
000220 44 e8 4b bd 23 74 68 3d 24 9e b0 bd 93 26 5e 3e
       -0.049782053 0.05675138 -0.08623913 0.21694402
000230 73 42 58 3d d6 9e b0 3d 02 69 1b 3e 85 3c e9 bd
       0.052797746 0.086240456 0.15176776 -0.11388496
000240 72 af 2c bd 5b 34 38 3e bf f3 d4 3a 18 c9 47 bd
       -0.042159505 0.17988722 0.0016246958 -0.048775762
000250 8c 89 30 bc 1e 6e 15 bd a2 e2 94 3d 86 26 aa 3c
       -0.010774981 -0.03648197 0.07269789 0.020770323
000260 0e 74 2d 3d 22 ea f1 bb 9d 0d 00 be 45 1c 3b be
       0.042347006 -0.007382647 -0.12505193 -0.18272503
000270 d3 c9 30 be 64 8a 49 bd 01 41 8d bd 09 e0 25 bd
       -0.1726449 -0.049204245 -0.06897164 -0.04049686
000280 63 eb df 3d 42 f3 bb bd f1 1a ec bd 21 01 14 be
       0.10933568 -0.09177257 -0.11528576 -0.14453556
000290 19 72 48 3c 5f 06 b4 3d d0 bb 55 bd bb 60 a3 bd
       0.012234234 0.08790278 -0.052181065 -0.07977434
0002a0 c9 24 11 3e bb ad a8 3e d2 cd f1 3c df f4 18 be
       0.14174189 0.32945046 0.029517088 -0.14937161
0002b0 4a 63 80 bd f4 4c 73 3d a7 ae 92 3e 61 46 02 3d
       -0.06268938 0.05939956 0.28648874 0.0318054
0002c0 e4 f0 10 3e 8e 50 03 3e 02 81 ab bd 10 80 35 bd
       0.14154392 0.12823698 -0.08374216 -0.044311583
0002d0 94 74 f6 bd 6e 7e 94 bd 3f 7f 76 3d cb 84 b3 bc
       -0.12033954 -0.07250677 0.060179945 -0.021913907
0002e0 76 47 c1 3d 82 1c 48 3d 7c 65 75 bd f1 bd ea 3c
       0.09437458 0.048855312 -0.059911236 0.028655024
0002f0 e2 a6 98 3e 86 78 e7 3d 64 ae 71 3e 72 8d 64 3e
       0.2981482 0.11302285 0.23601681 0.22319582
000300 18 9a 88 3c 5e 55 02 3c 79 99 52 3c 74 e0 8f 3e
       0.01667504 0.007954923 0.012853974 0.28100932
000310 d0 df 0a be da 51 53 bd 54 7a 5d 3d 77 0e bd 3c
       -0.1356194 -0.05159173 0.05407174 0.023078186
000320 fd 53 0b be 1b bb 7f bd 13 e6 4d 3d b2 64 8e bd
       -0.13606258 -0.062434297 0.050268244 -0.069528
000330 af 3e 96 bd 75 ea 97 bd 81 ec 90 3d bd 73 b5 be
       -0.07336175 -0.07417766 0.070763595 -0.35439864
000340 a3 75 54 3d 95 91 13 bd 1f f8 8f bd 5f c2 2d 3e
       0.05187 -0.03602751 -0.07029747 0.16968678
000350 20 42 45 bd 9d fc 5f be e6 0b a4 bd 95 9d 9b 3d
       -0.048158765 -0.21873708 -0.08010082 0.07598416
000360 a0 2b 1e be ca 44 01 be d4 e0 e7 bd 8c b4 a2 be
       -0.15446329 -0.12623897 -0.113221794 -0.3177837
000370 2d a6 b3 3d 7d f6 f1 3d ea b6 a8 bd ed 50 24 be
       0.0877193 0.11814592 -0.08238013 -0.16046496
000380 02 26 10 be 85 d4 eb 3d 97 4b 2b 3e fe 66 ab bc
       -0.14076999 0.11515144 0.16728054 -0.020923134
000390 cb 57 ee bc 49 b6 0d 3d 3e 41 e0 3d dd 0d a3 3d
       -0.029094597 0.03459767 0.10949944 0.079616286
0003a0 ef f0 27 3e dc f4 51 3e ab 0b ec 3d 04 42 5d 3b
       0.16400503 0.20503563 0.11525663 0.0033761272
0003b0 f5 0f f3 bd 35 10 87 3d 0c a1 38 3d 08 16 ad 3d
       -0.11868278 0.06594888 0.04507546 0.08451468
0003c0 31 05 b8 3d d9 35 de 3d 10 90 c0 3d 2c 5d 92 3b
       0.08985365 0.108501144 0.09402478 0.0044666734
0003d0 55 30 09 3d a6 37 0d 3d 6c c0 eb 3c bf f0 58 3e
       0.03349336 0.0344769 0.028778277 0.21185587
0003e0 6b 7d 4d bc f1 e6 8b be 5c 3b 42 bd 72 72 93 bd
       -0.012542109 -0.27324632 -0.04741989 -0.07199563
0003f0 71 1b 47 bd 66 3e a5 3d a6 f9 5b 3d 70 d4 18 be
       -0.048610155 0.08068542 0.05370488 -0.14924788

bias f4 [50]
000000 d4 b9 6b bd 49 fe 87 bd e4 25 90 bc a3 b4 32 bd
       -0.057550266 -0.06640298 -0.017596193 -0.0436293
000010 c2 07 d5 bd 9f a2 56 3c e0 b4 3c 39 dd d7 43 3d
       -0.1040187 0.013100295 0.00017996458 0.047813285
000020 db 75 cc bc f5 f8 a2 bc 73 b9 36 3d 27 2f d0 3c
       -0.024958542 -0.019894103 0.044610452 0.025413109
000030 dc b3 d5 3c 6a c3 c4 bc 3f 18 6e 3d 27 0d cd bd
       0.02608674 -0.024018962 0.05812859 -0.10012274
000040 16 9e a4 bb 9c f9 a6 bc bc b1 51 3d eb c3 4e 3d
       -0.005023728 -0.020382695 0.05119489 0.05047981
000050 26 21 b4 bc e3 50 53 3d cb 58 da bd 59 b6 9b 3d
       -0.021988463 0.05159081 -0.10661467 0.076031394
000060 9a 11 0f 3d fb 4f 8a 3d c5 26 a6 bd 2b 7c e5 3d
       0.034928896 0.06753536 -0.081128635 0.11205324
000070 e8 ba d8 bc 7c 9c 25 3e 82 21 85 3d 21 07 61 bd
       -0.026456311 0.16172975 0.06500532 -0.05493844
000080 73 9c 64 bd 96 0b e7 3d a8 39 02 be 9f b9 d4 bd
       -0.055813264 0.11281507 -0.12717307 -0.10386967
000090 10 91 4d bd bb 2a 13 bd 10 f1 cf bd 39 e6 d2 bc
       -0.05018717 -0.035929423 -0.10153401 -0.025744544
0000a0 68 d1 48 bc 7f 0a 87 3d 2f 4c 17 3c 5d 90 f5 3b
       -0.012256958 0.06593799 0.009234472 0.007494016
0000b0 4b 46 15 3d 12 06 9a bd b3 29 05 3b c2 8c 28 bd
       0.03644399 -0.07520689 0.0020319044 -0.041149862
0000c0 d0 19 19 3d 74 c5 99 bd
       0.037378132 -0.07508364

weight f4 [4, 50]
000000 27 7d 1a be 5c f3 15 be 3a ef 32 3e d9 fd cb bd
       -0.15086804 -0.14643615 0.1747407 -0.09960527
000010 75 9f 4b bc 67 95 84 bd b4 15 db 3d bd a3 62 3d
       -0.012428154 -0.06473809 0.10697499 0.055331934
000020 6a 2e db 3c eb 35 3b be 97 7e 00 be 57 b3 59 3e
       0.02675553 -0.18282287 -0.1254829 0.21259819
000030 09 88 20 3e cc 42 9c bd 39 0d 0a 3e 95 e3 18 3c
       0.15676893 -0.07629928 0.13481607 0.009331604
000040 10 4e 37 be 90 35 2c bd ff 1c 26 3e ea b9 45 3d
       -0.17900872 -0.04204327 0.16221999 0.048273005
000050 41 d4 1e be 29 ef a1 3d fb 29 94 bc 44 5b 45 bd
       -0.15510656 0.07906944 -0.018086424 -0.04818274
000060 bc 64 13 be 3f f3 90 bc 9d 36 4d 3b 3c c1 e4 bd
       -0.14393896 -0.017694114 0.003131307 -0.11169669
000070 e0 57 3a be 9f 8b 22 bc 1e 58 0e be 49 ad 96 bd
       -0.18197584 -0.009920984 -0.13900802 -0.0735727
000080 dc f1 25 bd 12 34 af bd 1a af f2 3d 84 8c 32 3e
       -0.04051386 -0.085548535 0.11849804 0.17436415
000090 83 f3 ca bd 4c aa a7 bd 58 d4 bd 3d dd a7 c1 3b
       -0.099097274 -0.081867784 0.09269017 0.0059099034
0000a0 91 cf cd 3c 2c b0 c8 bd 64 9e 30 3d ad 0c f3 bd
       0.02512339 -0.09799227 0.043119803 -0.11867652
0000b0 42 7a ad 3d 86 ef 1d 3e da f3 f8 3d 57 44 a0 3e
       0.084705845 0.15423402 0.12155886 0.3130214
0000c0 e0 13 63 3e 80 da 11 3e ab 81 5b 3b 22 f2 81 3d
       0.2217555 0.14243507 0.0033494036 0.06345011
0000d0 33 6b db bd aa 04 c5 bc 07 85 16 bd be 93 83 bc
       -0.10713806 -0.024050076 -0.03674796 -0.01606166
0000e0 6c 7e 35 3c 4c 81 4d 3d 6c a1 50 3e fc 9a 66 3e
       0.011077505 0.050172135 0.20374078 0.2252006
0000f0 c5 97 b1 ba 80 81 60 3e 24 8b 38 3d b7 1d b1 3d
       -0.0013549259 0.219244 0.04505457 0.08648246
000100 26 f1 3d 3e 99 76 6c 3e df 85 97 3d 75 e3 02 3e
       0.18549022 0.23092116 0.07398581 0.1278208
000110 c7 4a c6 3b fb 85 36 3e 5b 19 ea 3d 7a 65 88 3c
       0.0060513946 0.17824547 0.114306174 0.01664995
000120 8b eb dc 3d ec 22 cf bd 17 1d 9f 3d 83 b0 25 3c
       0.10787114 -0.10114083 0.0776922 0.010112884
000130 f8 9f 01 3e e2 27 7a bd 51 dc fd bc 9d 31 4c 3d
       0.1265868 -0.06107319 -0.030988844 0.049852002
000140 18 6f 88 3d 2e 37 23 3c 71 5b c5 3d 0d 25 5c 3d
       0.066618145 0.009961886 0.09636582 0.053746272
000150 b5 f7 5b 3d 65 dc 82 3e 85 23 95 3d ff e2 8b bc
       0.05370303 0.25558773 0.072821654 -0.017076014
000160 99 27 05 3e 20 71 50 3a 66 48 e7 bd 76 89 a1 3d
       0.13003387 0.0007951427 -0.11293106 0.07887547
000170 42 89 58 be 93 e5 a4 3c 35 fd 32 be b0 6e ce bc
       -0.2114611 0.020129 -0.17479403 -0.025199264
000180 aa 84 e4 3d 72 bd 06 3e 59 b7 38 3e 01 b4 12 bd
       0.11158116 0.13158205 0.18038692 -0.035816196
000190 c5 94 4c 3e 22 a9 85 3c 0b c6 88 bd 11 fc 8b 3d
       0.19978626 0.016316 -0.06678399 0.06835187
0001a0 99 b9 4e 3e 4f 97 f0 3c 7f 5f 96 bb 3d 94 f2 bd
       0.20187987 0.029369025 -0.0045890207 -0.118446805
0001b0 b1 75 26 be c7 c1 ea bc 95 12 3f bd 95 a4 0a be
       -0.16255833 -0.028656853 -0.04664858 -0.13539346
0001c0 8a cf d6 bd 48 22 4b bd 13 81 9a be eb 78 fa bd
       -0.10488804 -0.04959324 -0.301766 -0.122300945
0001d0 8c c9 f3 bd e0 97 3b bd 41 5e 4a be 61 dd 1c 3e
       -0.119036764 -0.045799136 -0.19762518 0.15318824
0001e0 29 c7 17 3c 97 00 80 be 51 03 4d 3e 33 14 e5 bd
       0.009263792 -0.2500045 0.20020796 -0.11185493
0001f0 47 73 1f 3c 74 28 ff bd b4 89 99 3e 30 3e 09 3d
       0.009732074 -0.12458888 0.29987872 0.033506572
000200 0c 93 ad 3e 9d 9d 87 3d 8e 36 22 3d f2 bc 25 3e
       0.3390125 0.06621859 0.03960281 0.16185358
000210 86 fd 44 3e 9f 47 d2 3d 24 0b 3b be 12 b6 57 be
       0.19237337 0.10267567 -0.18265969 -0.21065548
000220 03 28 5d be a4 ae 0d 3e 3f 54 81 be ef f5 f9 3d
       -0.21597295 0.13836151 -0.25259587 0.12205111
000230 c1 57 c1 3d 7a e5 14 3e 3e 6e 36 3e 57 d7 79 3e
       0.09440566 0.14540663 0.17815492 0.24398552
000240 41 1a dd bd 23 36 90 bd c0 86 94 be 62 82 a7 be
       -0.10796023 -0.07041576 -0.29009056 -0.32716662
000250 63 2f a3 bc 15 56 cc 3c a1 61 94 bd 47 89 2b 3d
       -0.019920057 0.02494339 -0.07245184 0.041878965
000260 31 a2 30 be 71 94 44 bd 1e 37 84 be 62 27 20 be
       -0.17249371 -0.047993127 -0.258233 -0.15640023
000270 b0 50 be 3d 0e 2d 0e 3e 99 e2 f9 bc cb e2 06 3b
       0.09292734 0.13884374 -0.030503558 0.0020581956
000280 5f 24 d0 bd c6 db 2a bd b2 b9 11 bc 46 a3 02 3d
       -0.10163187 -0.0417135 -0.008894371 0.03189399
000290 36 9d a2 3e 9b 54 f5 bd 93 7f b9 3c 2d 33 9e 3d
       0.31760567 -0.11979028 0.02264384 0.07724605
0002a0 bf 82 70 3d d3 54 02 be e3 37 ef bd cd 0f 77 3e
       0.05871844 -0.1272767 -0.116805814 0.24127121
0002b0 dd fe 3b be 91 88 06 3e 57 3b 08 3e 8a e1 3e 3e
       -0.18358941 0.13138033 0.13303886 0.18640724
0002c0 9e 87 80 be bb 23 10 3e f8 7d ac bd c6 52 88 3e
       -0.25103468 0.1407613 -0.08422464 0.2662565
0002d0 a1 72 96 3e 83 67 54 bd 73 a6 1f be ad d0 bd 3d
       0.2938433 -0.05185653 -0.15590839 0.09268317
0002e0 ed 44 42 be f3 57 ef bc 3c 72 db 3d 12 53 b3 3c
       -0.18971606 -0.029216742 0.10715148 0.021890197
0002f0 89 72 2b bd 65 ca 96 bd fb 4c 7c bc 4a 6f 8a bb
       -0.041857276 -0.073628224 -0.015399213 -0.0042246925
000300 4b 11 f1 3b d6 8b 21 be f5 6b a9 3d a3 40 87 bd
       0.007356798 -0.15776 0.08272544 -0.06604125
000310 3a 05 85 3d 1a 7b 27 3e 18 fd f1 bd ba ec 5a bc
       0.064951375 0.16355553 -0.11815852 -0.013362104

bias f4 [4]
000000 9b e5 b3 bc de ff 7e be 90 ce f0 3d 88 2a d7 bd
       -0.02196007 -0.24902293 0.11758149 -0.10506159

weight f4 [10, 50]
000000 65 de fb be 05 c7 9b be c7 72 3b be 79 24 c2 be
       -0.4919311 -0.30425277 -0.18305503 -0.3791845
000010 f0 13 4d be 3f 4e e8 be e9 95 93 3e ee d3 90 3c
       -0.20027137 -0.45372197 0.2882531 0.017679181
000020 15 a4 33 be b8 48 c9 3d 9e 97 94 be 1c 4f 9a bc
       -0.17543061 0.09828323 -0.29021925 -0.01883655
000030 a7 c9 fb 3e 3f f0 c2 bd db 39 ab 3e d7 54 dc bc
       0.49177286 -0.095184796 0.33442578 -0.026895924
000040 8f b1 d4 3e 8f 27 99 bd 66 21 06 3f 21 e2 2e bd
       0.41541716 -0.07478248 0.5239471 -0.042696122
000050 c3 f1 9a 3d 01 3f 83 3d 35 08 7b be bd fd bf 3e
       0.07565644 0.064085014 -0.2451485 0.37498274
000060 0d f6 6d 3d db fe 8a 3d 56 53 98 be 84 04 72 bb
       0.05809598 0.06786891 -0.2975108 -0.003692896
000070 fe 24 64 be 78 d7 2f 3e 5c bc ae 3c 11 cc 09 be
       -0.22279736 0.17172039 0.021330051 -0.13456751
000080 4b f3 7b be ad df b6 bd 8c 4b 7e be 43 8c 2c 3e
       -0.24604528 -0.089293815 -0.24833506 0.1685038
000090 45 6f 31 bd 74 f5 ae bd a3 e7 99 3e 53 31 13 bf
       -0.043319006 -0.0854291 0.30059537 -0.5749714
0000a0 1b e8 ab 3d ef 45 cd 3e 8f d3 f9 bd 77 e7 a5 be
       0.0839388 0.40092418 -0.12198555 -0.32403156
0000b0 88 8f b0 3d 27 67 fb 3c 00 4c 6d bd ca 22 10 bd
       0.086211264 0.030688835 -0.057933807 -0.035189427
0000c0 26 db 3f be 20 98 ae be a5 d8 54 3d 43 c4 80 3e
       -0.18735942 -0.34100437 0.05196442 0.25149736
0000d0 1d c9 87 3c 22 90 cb 3c e1 81 b6 3e cc 12 ec be
       0.01657539 0.024849001 0.35645965 -0.4610809
0000e0 68 95 8a be 93 0d 80 3e 2e c9 ee bd 05 6f eb 3e
       -0.27067113 0.25010356 -0.11659466 0.4598314
0000f0 ba 3b a3 be 44 32 ca 3e 24 42 6e be 00 e2 70 3e
       -0.31881505 0.39491475 -0.23267418 0.23523712
000100 3b 6f 09 3e 8f cb 0f 3d 67 d0 e5 bd f9 92 0b bd
       0.13421337 0.035106238 -0.1122139 -0.03407571
000110 b5 62 ff bd 59 14 c7 3e 67 8f 75 bd f5 77 74 be
       -0.12469999 0.38882712 -0.059951212 -0.23873885
000120 a4 ac fe bd 9d 94 4a be cd c1 88 3e c9 d7 88 be
       -0.12435272 -0.19783254 0.26710358 -0.2672713
000130 02 40 33 3e 30 b0 6f 3d db fd 9b 3e 54 22 2a 3d
       0.17504886 0.058517635 0.30467114 0.041536644
000140 e9 f7 b3 3e 75 cb db 3e d7 74 87 3e dc 8a a7 be
       0.35150078 0.42928663 0.2645633 -0.3272313
000150 5d 68 17 be 6e 57 1a 3d 67 75 bf 3e d0 43 38 3e
       -0.14785905 0.037681036 0.37394258 0.17994618
000160 b5 d7 30 3e 11 a8 7c be 56 7d 15 3e 03 3a c7 be
       0.17269786 -0.24673487 0.14598593 -0.38911447
000170 5a 5b 07 bf 24 61 cd bd c3 b4 9d be 7d 49 18 be
       -0.52873766 -0.10028294 -0.30801973 -0.14871784
000180 f9 25 27 3e 3d db c5 3e e8 e3 df ba be 1b 81 bc
       0.16323079 0.38643828 -0.0017081471 -0.015760299
000190 fa a9 c2 3e 6a 8d 6c be 30 d9 98 bd 19 19 1d 3e
       0.38020307 -0.2310082 -0.074633 0.15341605
0001a0 ea 87 e6 3d d1 9a b6 3e d9 61 89 be c0 47 0d 3e
       0.11256392 0.3566499 -0.26832464 0.13796902
0001b0 87 46 8e be 24 1e 77 be c4 e2 c4 3d fe 3b a2 be
       -0.27788183 -0.24132591 0.096135646 -0.31686395
0001c0 de 7e 8b 3e 54 4c 2c be 63 b5 2c be b4 94 3b 3e
       0.2724523 -0.16825992 -0.16866069 0.18318444
0001d0 05 5f d5 3e e6 cc 7c 3d 7a b7 6b bd 71 af 9e be
       0.41674057 0.061718844 -0.057548024 -0.30993226
0001e0 f4 52 7e be 6e 8f 68 be 76 9d ed 3e 17 1b 40 bd
       -0.24836332 -0.22710964 0.46409196 -0.046900835
0001f0 a3 10 b3 be 94 8a 7c 3d 37 dc f9 3d 42 46 3c 3e
       -0.3497363 0.061655596 0.12200206 0.18386176
000200 b0 9a 17 3e e3 8c ce 3d 20 07 93 3d d8 d9 e9 3e
       0.14805102 0.10085466 0.07179093 0.45674014
000210 69 a3 be 3d 25 33 3c bf 50 1c 25 3e c8 c5 3a be
       0.09308512 -0.7351554 0.16124082 -0.1823951
000220 91 d3 3d 3e 7c 93 7d 3e c6 d9 b7 3e 07 b5 39 bd
       0.18537737 0.24763292 0.35908335 -0.045338657
000230 bc 5c f4 3e c5 1d 11 3e 4e 83 29 be 53 1b a5 be
       0.47727 0.14171512 -0.16553995 -0.3224741
000240 36 ba 16 bf a3 62 b5 bb 41 00 e9 bd dc 91 66 be
       -0.58877885 -0.00553544 -0.113770016 -0.22516578
000250 4d a8 cd be f3 65 fe bd 21 de 0c 3e ff da 5e bc
       -0.40167466 -0.12421789 0.1375661 -0.013602017
000260 87 75 61 be 67 f6 c3 bd 7e 6f 79 be 53 5c 59 3e
       -0.2201749 -0.09568482 -0.24358937 0.21226625
000270 cd ed 5a be 0c 26 b0 3e 97 0e ea 3d e9 2d df bd
       -0.21379776 0.34404027 0.11428564 -0.108974285
000280 ae a6 48 3e 06 b2 b2 bd 2c 08 8f be 5b bf 26 3e
       0.19594833 -0.087253615 -0.27935922 0.16283934
000290 6b d2 07 3e dc 1f d6 bd e9 31 2c be b1 de eb bc
       0.13263862 -0.104552954 -0.16815914 -0.028792711
0002a0 95 ee 32 be 71 97 46 be 2c 85 20 3d 4b f6 44 3e
       -0.17473824 -0.19393708 0.039189503 0.19234578
0002b0 66 33 97 be 6d 4f 28 be d5 9f 52 3e d2 70 21 3e
       -0.295314 -0.16436549 0.20568784 0.15765694
0002c0 06 a6 29 bc a1 3f 98 3e 4c 94 31 3d eb 17 83 3e
       -0.0103545245 0.29736045 0.043354318 0.25604185
0002d0 b7 82 31 3e 00 7a 11 be 15 4c af bd 6b dc 8c 3e
       0.1733502 -0.14206696 -0.08559433 0.27511916
0002e0 73 25 a6 3d 6b 66 58 be 00 30 23 bc 2e 20 d2 bd
       0.081126116 -0.2113282 -0.009960175 -0.10260044
0002f0 f0 85 69 be e1 f9 99 3d 8f 1c 2a 3d 7c 08 5b be
       -0.22805 0.07518364 0.04153114 -0.21389955
000300 52 15 94 3d 33 bf f7 3c 00 46 6e 3e b7 4f 0c bd
       0.07230629 0.030242538 0.2326889 -0.03425571
000310 aa 7d 0c 3e 1b fe 50 bc b8 31 9e bc 6c 9f 4d 3e
       0.13719812 -0.012755896 -0.019310817 0.20080346
000320 6e 2f c3 be f2 81 27 be 75 d1 0a 3e 39 ef 1f 3e
       -0.38122123 -0.16358164 0.13556464 0.156186
000330 3f cb 93 bd f6 b8 5c 3e 86 48 fb be 08 70 90 be
       -0.072165005 0.21554932 -0.49078768 -0.28210473
000340 a3 75 b3 bd bf db 83 bd d1 a4 01 bd 78 df 8e bd
       -0.08762672 -0.064383976 -0.03165132 -0.06976217
000350 35 35 55 be 8a 44 09 3d 27 d9 59 be 85 d4 5d 3e
       -0.20821078 0.03351263 -0.21274243 0.21663101
000360 f4 0e 6c be ae 3d 9d 3e eb 46 cf 3d 5e c8 68 bd
       -0.23052579 0.3071112 0.101209484 -0.05683171
000370 c4 33 d5 3c e2 a8 a5 bd d4 b5 32 3e ec f6 4b bd
       0.02602566 -0.080888525 0.17452174 -0.04979603
000380 d9 69 3a be 66 c0 e5 bd c1 b9 3f 3e f0 4d 01 bf
       -0.1820444 -0.11218338 0.18723203 -0.5050955
000390 bf 12 d6 3d 16 ed d0 be ae 57 64 be ac 8d b6 bd
       0.10452794 -0.40805882 -0.22299072 -0.089137405
0003a0 b6 05 0e be 18 2f ad be 1c 21 65 3d 56 2b 3e 3e
       -0.13869366 -0.33824992 0.05593978 0.18571219
0003b0 50 b5 6f be 18 b0 a8 3e 22 1f 0c 3e 40 38 b1 3e
       -0.23409009 0.3294685 0.13683751 0.34613228
0003c0 a5 8e e2 be 51 4c c0 bd 15 19 31 bc ef 68 18 3e
       -0.44249454 -0.09389556 -0.010809203 0.14883779
0003d0 08 67 1f 3d ef 91 6e 3e a1 ca c2 bd 70 71 93 3d
       0.038916618 0.23297857 -0.09511305 0.07199371
0003e0 79 6b 83 3e bc 34 6c be 0c 45 f7 3d 3d 34 e3 bc
       0.25667933 -0.23066992 0.120737165 -0.02773487
0003f0 3c 3b 1c be 73 02 5c 3e f4 25 f3 bd ae db 5a 3e
       -0.15256971 0.2148531 -0.11872473 0.21372864

bias f4 [10]
000000 55 b3 46 3e b0 57 85 bd 61 ea c8 bd 6c f7 83 bc
       0.19404347 -0.06510866 -0.09810329 -0.01610919
000010 2b 1b 0c be f7 ae ac 3d 35 46 38 bc 65 b7 00 be
       -0.13682239 0.084318094 -0.011247207 -0.1256996
000020 0f b0 b4 bc 87 72 91 3d
       -0.022056608 0.071019225

weight f4 [1, 50]
000000 9d 11 30 bc de 82 f7 3a 92 e3 96 bc 0e 57 1c bb
       -0.010746387 0.0018883606 -0.01841906 -0.00238556
000010 20 2a 06 bc f7 ae b6 3c 0c 0b 82 3b 62 74 62 3b
       -0.008188754 0.022300227 0.003968602 0.0034554233
000020 67 3b 24 bc 04 02 da bc d6 a8 51 3b 90 ee b0 bc
       -0.010023928 -0.02661229 0.0031991503 -0.02159813
000030 f1 8c 84 3c 31 2f 31 bb d8 70 fe bc f9 f4 03 bd
       0.016180487 -0.0027036185 -0.031059667 -0.032216046
000040 fe 58 8b bc 83 2a db 3c 5e b2 6c 3c b6 67 ac bc
       -0.017010208 0.02675367 0.014446823 -0.021045547
000050 b0 cc 86 3a ef c2 c0 bc 0b b1 81 3c 8f 1e 88 3c
       0.001028439 -0.023530452 0.015831491 0.016616134
000060 4f 8a c1 3b 39 df 0c 3b d5 6e 94 bc df db 96 bc
       0.0059063802 0.0021495356 -0.018119255 -0.01841539
000070 e5 cc 5c bc 6a 6e 03 3b 00 78 5c b9 e6 6e 31 3c
       -0.013476585 0.0020054826 -0.00021025538 0.010829663
000080 92 ed 36 3d f9 70 9c bc 90 50 9a bc 23 ac 50 bc
       0.04466016 -0.019096838 -0.018837243 -0.012736353
000090 5b cd 07 bc 2f 59 68 3b c9 e5 13 3c e4 5c ca 3b
       -0.008288707 0.0035453548 0.009026953 0.006175624
0000a0 cc 35 3f 3b 24 0a 7e bb 4d 04 80 bc 9a b6 04 3a
       0.0029176353 -0.0038763369 -0.01562705 0.000506261
0000b0 72 b7 e7 3b 90 99 13 bc c3 2d 11 3d a3 2e 2c 3d
       0.007071429 -0.00900878 0.035444032 0.042036664
0000c0 bc fc c8 bc f9 e6 ad 3a
       -0.024534576 0.0013267688
